
  0%|                                                                                                       | 0/500 [00:00<?, ?it/s]
CloudNet(
  (pool): MaxPool2d(kernel_size=3, stride=2, padding=0, dilation=1, ceil_mode=False)
  (conv1): Conv2d(3, 96, kernel_size=(11, 11), stride=(4, 4), bias=False)
  (b1): BatchNorm2d(96, eps=1e-05, momentum=0.1, affine=True, track_running_stats=True)
  (conv2): Conv2d(96, 256, kernel_size=(5, 5), stride=(1, 1), padding=(2, 2), bias=False)
  (b2): BatchNorm2d(256, eps=1e-05, momentum=0.1, affine=True, track_running_stats=True)
  (conv3): Conv2d(256, 384, kernel_size=(3, 3), stride=(1, 1), padding=(1, 1), bias=False)
  (b3): BatchNorm2d(384, eps=1e-05, momentum=0.1, affine=True, track_running_stats=True)
  (conv4): Conv2d(384, 256, kernel_size=(3, 3), stride=(1, 1), padding=(1, 1), bias=False)
  (b4): BatchNorm2d(256, eps=1e-05, momentum=0.1, affine=True, track_running_stats=True)
  (fc1): Linear(in_features=6400, out_features=9216, bias=True)
  (fc2): Linear(in_features=9216, out_features=4096, bias=True)
  (fc3): Linear(in_features=4096, out_features=7, bias=True)
)

















100%|█████████████████████████████████████████████████████████████████████████████████████████████| 500/500 [00:37<00:00, 13.30it/s]



 95%|████████████████████████████████████████████████████████████████████████████████████████▍    | 214/225 [00:07<00:00, 42.77it/s]

100%|█████████████████████████████████████████████████████████████████████████████████████████████| 225/225 [00:08<00:00, 26.26it/s]
…
